…
, scale=0.5, seed=0, shear=0.0, show=False, show_boxes=True, show_conf=True, show_labels=True, simplify=True, single_cls=False, source=None, split=val, stream_buffer=False, task=segment, time=None, tracker=botsort.yaml, translate=0.1, val=True, verbose=True, vid_stride=1, visualize=False, warmup_bias_lr=0.1, warmup_epochs=3.0, warmup_momentum=0.8, weight_decay=0.0005, workers=8, workspace=None
Overriding model.yaml nc=80 with nc=1

                   from  n    params  module                                       arguments                     
  0                  -1  1      1856  ultralytics.nn.modules.conv.Conv             [3, 64, 3, 2]                 
  1                  -1  1     73984  ultralytics.nn.modules.conv.Conv             [64, 128, 3, 2]               
  2                  -1  1    212864  ultralytics.nn.modules.block.RepNCSPELAN4    [128, 256, 128, 64, 1]        
  3                  -1  1    164352  ultralytics.nn.modules.block.ADown           [256, 256]                    
  4                  -1  1    847616  ultralytics.nn.modules.block.RepNCSPELAN4    [256, 512, 256, 128, 1]       
  5                  -1  1    656384  ultralytics.nn.modules.block.ADown           [512, 512]                    
  6                  -1  1   2857472  ultralytics.nn.modules.block.RepNCSPELAN4    [512, 512, 512, 256, 1]       
  7                  -1  1    656384  ultralytics.nn.modules.block.ADown           [512, 512]                    
  8                  -1  1   2857472  ultralytics.nn.modules.block.RepNCSPELAN4    [512, 512, 512, 256, 1]       
  9                  -1  1    656896  ultralytics.nn.modules.block.SPPELAN         [512, 512, 256]               
 10                  -1  1         0  torch.nn.modules.upsampling.Upsample         [None, 2, 'nearest']          
 11             [-1, 6]  1         0  ultralytics.nn.modules.conv.Concat           [1]                           
 12                  -1  1   3119616  ultralytics.nn.modules.block.RepNCSPELAN4    [1024, 512, 512, 256, 1]      
 13                  -1  1         0  torch.nn.modules.upsampling.Upsample         [None, 2, 'nearest']          
 14             [-1, 4]  1         0  ultralytics.nn.modules.conv.Concat           [1]                           
 15                  -1  1    912640  ultralytics.nn.modules.block.RepNCSPELAN4    [1024, 256, 256, 128, 1]      
 16                  -1  1    164352  ultralytics.nn.modules.block.ADown           [256, 256]                    
 17            [-1, 12]  1         0  ultralytics.nn.modules.conv.Concat           [1]                           
 18                  -1  1   2988544  ultralytics.nn.modules.block.RepNCSPELAN4    [768, 512, 512, 256, 1]       
 19                  -1  1    656384  ultralytics.nn.modules.block.ADown           [512, 512]                    
 20             [-1, 9]  1         0  ultralytics.nn.modules.conv.Concat           [1]                           
 21                  -1  1   3119616  ultralytics.nn.modules.block.RepNCSPELAN4    [1024, 512, 512, 256, 1]      
 22        [15, 18, 21]  1   7889779  ultralytics.nn.modules.head.Segment          [1, 32, 256, 16, None, [256, 512, 512]]
YOLOv9c-seg summary: 380 layers, 27,836,211 parameters, 27,836,195 gradients, 149.0 GFLOPs

Transferred 993/999 items from pretrained weights
Freezing layer 'model.22.dfl.conv.weight'
[34m[1mAMP: [0mrunning Automatic Mixed Precision (AMP) checks...
[KDownloading https://github.com/ultralytics/assets/releases/download/v8.4.0/yolo26n.pt to 'yolo26n.pt': 100% ━━━━━━━━━━━━ 5.3MB 85.0MB/s 0.1s
…
